gesture_recognizer/acc_position_lstm.tflite (tflite, 695400 bytes, 12 tensors)

dense_1/bias f4 [4]
0	0xbc0972de	-0.008389203
1	0x3b97075b	0.004609031
2	0x3bb20622	0.00543286
3	0xb9c46680	-0.00037460402

dense/bias f4 [128]
0	0x38aaf484	8.151776e-05
1	0x39d02fa8	0.00039708358
2	0x3c51d19a	0.012806321
3	0x3c0ee3a6	0.008721268
4	0x3c6f505b	0.014606561
5	0x3ba0841c	0.004898561
6	0xbbf989fe	-0.007615327
7	0xbb953271	-0.004553132
8	0xbbc281b4	-0.005935872
9	0xbbbf884d	-0.0058451057
10	0x3b7d1286	0.0038615777
11	0x3a96f657	0.0011517507
12	0xbbb111c1	-0.0054037278
13	0x3ba93941	0.005164296
14	0xbc028c91	-0.007968084
15	0x3c40dfa9	0.011772075
16	0x3ad34ea3	0.0016121458
17	0x3c4426ab	0.01197211
18	0xbbd9a504	-0.006641986
19	0x3c04a6fb	0.008096452
20	0xbc0dde1a	-0.00865891
21	0x3c194070	0.009353742
22	0xbb831888	-0.004000727
23	0x3a5bbf22	0.0008382668
24	0xbc2d6f7a	-0.01058566
25	0x3b9da2bd	0.0048106597
26	0x3c114d5c	0.008868542
27	0x3a16c2e1	0.0005751085
28	0x3b68ac4f	0.0035503095
29	0xbae2c3de	-0.0017300805
30	0xbb96cacf	-0.0046018134
31	0xbbb15b7b	-0.0054125166
32	0x3b1d0400	0.0023958683
33	0x3c9c20fa	0.019058693
34	0xbbee51e2	-0.007272945
35	0xbab0ca58	-0.0013488038
36	0x3c1c07c4	0.009523336
37	0xbc25671c	-0.010095384
38	0xbaa2441c	-0.0012379917
39	0x3bfb436b	0.007667949
40	0x3c6ad992	0.014334099
41	0x3bbb4778	0.005715307
42	0xbba96a1d	-0.0051701204
43	0x3c24df45	0.010062997
44	0xb8ba7fc8	-8.892972e-05
45	0x3c481dc3	0.012214127
46	0xbba02802	-0.004887582
47	0xbc103ee6	-0.008804059
48	0x3b67201e	0.0035266946
49	0x3c0e207a	0.008674735
50	0xbbec6104	-0.0072137136
51	0xbb8d09ab	-0.004304131
52	0x3b93ec15	0.004514227
53	0x3c1459ba	0.009054596
54	0x39ab63db	0.0003269006
55	0xbb40cd4b	-0.002941924
56	0x3b5ab513	0.0033372089
57	0xbc2a141e	-0.010380773
58	0xbb99b755	-0.0046910443
59	0xbb2fdf4b	-0.0026835974
60	0xbbde851c	-0.00679077
61	0x3b13c90c	0.0022550253
62	0x3c3bec86	0.011469966
63	0xbc2d8db3	-0.010592866
64	0xbc25a550	-0.010110214
65	0x3bd2314d	0.0064145685
66	0xbb63116f	-0.0034647842
67	0x3bbea87c	0.0058184247
68	0x39913664	0.0002769708
69	0xbb3fbcae	-0.002925675
70	0x3c6fee73	0.014644253
71	0x3ca1311a	0.019676734
72	0x3bd67b6a	0.006545474
73	0x3c27a2c5	0.010231678
74	0x3c69e7f6	0.014276495
75	0xbb2d6add	-0.00264614
76	0xb9fc2e15	-0.0004809952
77	0xbc6da4ca	-0.014504621
78	0xba8d8f4c	-0.0010800152
79	0xbbaa0834	-0.005188966
80	0x3a2d9673	0.0006621845
81	0x394fe0e4	0.00019824837
82	0x3b99cb2b	0.004693409
83	0xbc306ecf	-0.010768606
84	0xbae93036	-0.0017790857
85	0xbb0767a7	-0.0020661147
86	0xbb4d09dc	-0.0031286394
87	0xbbda5206	-0.00666261
88	0xbb72b9f1	-0.00370371
89	0xbb94b151	-0.0045377393
90	0xba326e67	-0.00068066124
91	0x3c3f9f6c	0.011695724
92	0x3b099090	0.0020990707
93	0x3ba8486e	0.0051355874
94	0xbc47c7f5	-0.01219367
95	0x3c91005d	0.017700369
96	0xbba51fb0	-0.005039178
97	0xbbf45294	-0.007456133
98	0x3c7c0323	0.015381607
99	0xbc0c093f	-0.008547126
100	0x3c4d9038	0.012546591
101	0xbbbe82c6	-0.0058139293
102	0xbb0647c3	-0.002048955
103	0x3c053c9b	0.008132125
104	0xbc041de6	-0.008063769
105	0x3b8e9f99	0.0043525216
106	0xbc04c9b9	-0.008104735
107	0x3b025a9a	0.0019890429
108	0x3c493571	0.012280808
109	0x3b835239	0.0040076044
110	0x3c569428	0.013096847
111	0x3c52898d	0.0128501775
112	0xbbd98f4c	-0.006639397
113	0x3c08fe65	0.008361434
114	0x3c343df1	0.011001096
115	0x3c22f120	0.009945184
116	0x3bf2e168	0.0074121244
117	0xbb7dd4ad	-0.00387315
118	0x3c82862b	0.015933117
119	0x3b72bcd5	0.0037038822
120	0x3b974d6d	0.004617384
121	0xbc026822	-0.0079593975
122	0x3aebf3ac	0.0018001697
123	0x3bbc42b1	0.005745255
124	0xbc19d98d	-0.009390247
125	0xbb0fc2d5	-0.0021936197
126	0x3a8295d5	0.0009962866
127	0xbb9c48cc	-0.0047694203

bidirectional/forward_lstm/lstm_cell_4/bias f4 [512]
0	0x3bbef051	0.005826988
1	0x3bd79272	0.006578737
2	0xbb41e2c2	-0.002958462
3	0xbbb7cd78	-0.0056092106
4	0x3be87e06	0.0070951013
5	0x3b93de29	0.0045125675
6	0xba9b0604	-0.0011827354
7	0x3c2d98b9	0.010595494
8	0x3b5abc1d	0.0033376284
9	0xbbb34095	-0.0054703453
10	0xbb8fa0b9	-0.0043831733
11	0x3c847976	0.016171198
12	0xbc13961b	-0.009007956
13	0x3bf54565	0.007485079
14	0x3bae9500	0.005327821
15	0xbbd25ce4	-0.006419765
16	0x3baf1ec9	0.005344246
17	0x3b375c08	0.002797844
18	0xbba0c480	-0.004906237
19	0x3c1cb85a	0.009565437
20	0x3a14bc62	0.0005673823
21	0x3c60b3f7	0.013714782
22	0xbc4db97d	-0.012556431
23	0x3bdf196c	0.0068084504
24	0x3c63a7e0	0.013895005
25	0xbae4a84a	-0.0017445174
26	0xbbdab5f7	-0.006674524
27	0x3bf796d5	0.0075558224
28	0xbbeb150d	-0.0071741403
29	0xbc803e33	-0.015654659
30	0xbc4e815d	-0.012604085
31	0xbc451698	-0.012029313
32	0xbb2b6d58	-0.0026157703
33	0xba0b1292	-0.00053051964
34	0x3c897c1b	0.01678281
35	0x3bab4b63	0.0052274927
36	0x3bf340b2	0.0074234838
37	0xbb9c5710	-0.004771121
38	0xbc4139af	-0.011793538
39	0xbaf0f4fc	-0.0018383558
40	0xbc203476	-0.009778133
41	0x3b1310ad	0.002244036
42	0x3c3a6b24	0.011378083
43	0x3bdd74fb	0.00675833
44	0x3c96e9ad	0.018421972
45	0x3c0dda7e	0.00865805
46	0x3bc5da87	0.0060380134
47	0x3cb2f000	0.021842957
48	0x3c024686	0.007951384
49	0x3b1a69b2	0.0023561534
50	0x3c8c39b4	0.017117359
51	0x3c9de0de	0.019272264
52	0x3c684c95	0.014178415
53	0x3bcd7987	0.0062705907
54	0x3c29b901	0.01035905
55	0x3b58d051	0.003308315
56	0xbc1f7afb	-0.009733911
57	0xbb298088	-0.0025863964
58	0xbc4b4800	-0.012407303
59	0x3c797cb2	0.015227484
60	0x3ccae74b	0.024768492
61	0xbc17f84f	-0.00927551
62	0x3be5b131	0.0070096483
63	0x3c96f9ee	0.018429723
64	0xbaab3758	-0.0013062758
65	0xbbfe9d89	-0.0077702445
66	0x3bdaf51c	0.0066820513
67	0x3bf5d576	0.007502253
68	0x3be3205f	0.006931349
69	0x3c892a53	0.016743815
70	0x3c3b2a91	0.011423723
71	0x3aa5475b	0.0012609767
72	0x3bd72599	0.0065657613
73	0xbc2cb5bc	-0.010541376
74	0xbbe0fec4	-0.006866308
75	0x3c7d86d3	0.015474039
76	0xbbd6e632	-0.006558203
77	0xbc229375	-0.009922852
78	0x3c764f8d	0.015033615
79	0xb82fe688	-4.193795e-05
80	0xbb717c38	-0.0036847722
81	0x3aac876d	0.0013162919
82	0x3c771337	0.015080265
83	0xbb937dff	-0.004501104
84	0x3c4b9526	0.0124256965
85	0x3caa39df	0.020779548
86	0xbb8e88c3	-0.0043497994
87	0xbca4c297	-0.020112319
88	0x39fc0b2a	0.00048073503
89	0xba5a1114	-0.0008318585
90	0xbb50bc70	-0.0031850599
91	0x3c9bfe45	0.019042144
92	0x3b46cf6a	0.003033603
93	0xbc3e76d1	-0.011625008
94	0x3c8b2347	0.016984595
95	0x3c73a5fc	0.014871117
96	0x3c6d51b7	0.014484814
97	0xbb817668	-0.0039508827
98	0x3b438288	0.0029832441
99	0x3c1d0071	0.009582625
100	0xbc5386dd	-0.012910572
101	0x3c85ae55	0.01631848
102	0xbc10341b	-0.008801485
103	0xbc3776c8	-0.011197753
104	0xbc16a6b0	-0.009195015
105	0x3c4c491f	0.012468605
106	0xbc27385e	-0.01020631
107	0xbbf96c09	-0.0076117557
108	0x3c46fb11	0.01214482
109	0x3b2347d6	0.0024914644
110	0xbc407d18	-0.011748575
111	0x3b1183bf	0.002220377
112	0x3ba7a279	0.005115804
113	0xbb9d3058	-0.004797023
114	0x3c4df3dd	0.012570349
115	0xbc06fbc7	-0.008238739
116	0xbbb81088	-0.005617205
117	0x3c0abcd4	0.008467872
118	0x3cbacee5	0.022803733
119	0x3c4c1450	0.012456015
120	0x3c2ff111	0.010738627
121	0x3c5bc5f5	0.013413896
122	0x3c20af99	0.009807491
123	0x3c508e99	0.01272931
124	0xbbc277ba	-0.0059346827
125	0x3c866b31	0.016408535
126	0x3b401325	0.0029308286
127	0xbc52544e	-0.012837483
128	0x3f80c85c	1.0061145
129	0x3f80e998	1.0071287
130	0x3f806839	1.0031806
131	0x3f7ff163	0.999777
132	0x3f813a62	1.0095942
133	0x3f806fac	1.003408
134	0x3f801087	1.0005044
135	0x3f801d13	1.0008873
136	0x3f815262	1.0103266
137	0x3f7f5856	0.99744165
138	0x3f7fd912	0.999406
139	0x3f820e71	1.0160657
140	0x3f7d5d6f	0.98970693
141	0x3f823b0b	1.0174268
142	0x3f80d1f5	1.0064074
143	0x3f7d641b	0.98980874
144	0x3f8165c3	1.010918
145	0x3f8023d6	1.0010936
146	0x3f7f9bd9	0.9984718
147	0x3f814179	1.0098106
148	0x3f813e3f	1.0097121
149	0x3f812174	1.0088334
150	0x3f7becb0	0.9840803
151	0x3f80fdd3	1.0077461
152	0x3f831091	1.0239431
153	0x3f800039	1.0000068
154	0x3f7ea4aa	0.9947001
155	0x3f82cf4d	1.0219513
156	0x3f7e8675	0.99423915
157	0x3f7e7621	0.99399
158	0x3f801a8c	1.0008101
159	0x3f7db505	0.9910434
160	0x3f7ec97d	0.99526197
161	0x3f8015cd	1.0006653
162	0x3f829032	1.0200255
163	0x3f80b155	1.0054117
164	0x3f80b14f	1.005411
165	0x3f7ebed6	0.9950994
166	0x3f7d237f	0.9888229
167	0x3f81b857	1.0134381
168	0x3f7da2bf	0.99076456
169	0x3f813057	1.0092877
170	0x3f813e23	1.0097088
171	0x3f82aed6	1.0209606
172	0x3f82d9e2	1.0222743
173	0x3f81ac34	1.0130677
174	0x3f82ad5b	1.0209154
175	0x3f83ab46	1.0286644
176	0x3f81fd0e	1.0155351
177	0x3f80bb07	1.0057076
178	0x3f82afde	1.020992
179	0x3f838ca3	1.0277294
180	0x3f817b9e	1.011585
181	0x3f816ef7	1.0111989
182	0x3f8109a1	1.0081064
183	0x3f81aee4	1.0131497
184	0x3f805978	1.0027304
185	0x3f7f657a	0.99764216
186	0x3f7de627	0.9917931
187	0x3f81e4a4	1.01479
188	0x3f848fc7	1.0356377
189	0x3f7ed9d6	0.9955114
190	0x3f814dda	1.0101883
191	0x3f82aca7	1.0208939
192	0x3f8054b5	1.002585
193	0x3f7d9f3e	0.9907111
194	0x3f820023	1.0156292
195	0x3f81e7a2	1.0148814
196	0x3f813302	1.0093691
197	0x3f8248ca	1.0178463
198	0x3f82daf0	1.0223064
199	0x3f828b69	1.0198795
200	0x3f820d47	1.0160302
201	0x3f80360f	1.0016497
202	0x3f7de02a	0.9917017
203	0x3f8194a2	1.0123484
204	0x3f7e32f2	0.99296486
205	0x3f7d81aa	0.99025977
206	0x3f8220ba	1.0166237
207	0x3f7e920b	0.99441594
208	0x3f800401	1.0001222
209	0x3f81428a	1.0098431
210	0x3f828487	1.0196694
211	0x3f830c02	1.023804
212	0x3f814885	1.0100256
213	0x3f820d35	1.016028
214	0x3f80ded2	1.0067999
215	0x3f807e00	1.0038452
216	0x3f819523	1.0123638
217	0x3f7e175c	0.99254394
218	0x3f7ed88f	0.9954919
219	0x3f8314ed	1.0240761
220	0x3f80f1d7	1.0073804
221	0x3f7cdbad	0.987727
222	0x3f82d916	1.0222499
223	0x3f81d04c	1.0141692
224	0x3f827b18	1.0193815
225	0x3f810d15	1.0082117
226	0x3f80c194	1.0059075
227	0x3f81bd0d	1.0135819
228	0x3f7ec64a	0.99521315
229	0x3f81fb91	1.0154897
230	0x3f7d3693	0.989114
231	0x3f7c8814	0.9864514
232	0x3f7da4f1	0.99079806
233	0x3f829b1c	1.0203586
234	0x3f7ccb39	0.98747593
235	0x3f7e998b	0.9945304
236	0x3f82aaf1	1.0208417
237	0x3f8159a3	1.010548
238	0x3f7e44d7	0.9932379
239	0x3f8025b5	1.0011507
240	0x3f808f08	1.004365
241	0x3f7e7c7a	0.99408686
242	0x3f826c96	1.0189388
243	0x3f7c3de6	0.9853195
244	0x3f7ec7ee	0.9952382
245	0x3f833556	1.0250652
246	0x3f820393	1.0157341
247	0x3f818d40	1.0121231
248	0x3f817f78	1.0117025
249	0x3f819ec5	1.0126578
250	0x3f8129c6	1.0090873
251	0x3f8099ab	1.0046896
252	0x3f7e4475	0.9932321
253	0x3f82c586	1.0216529
254	0x3f809944	1.0046773
255	0x3f79da59	0.975988

bidirectional/backward_lstm/lstm_cell_5/bias f4 [512]
0	0x3c784256	0.0151525345
1	0xbb32c0db	-0.0027275595
2	0x3b38682d	0.0028138265
3	0x3cc7b913	0.024380242
4	0x3c10dc12	0.008841531
5	0x3c3c5141	0.011493982
6	0x3bb6de69	0.0055807126
7	0x3cc3bdc6	0.023894202
8	0x3bed1ad0	0.0072358623
9	0x3c06ed71	0.008235321
10	0x3bcf36dc	0.0063236784
11	0x3ab80054	0.0014038184
12	0xbbd85d91	-0.006602951
13	0x3cb44414	0.022005118
14	0x3c9813c4	0.018564112
15	0xbbe762b2	-0.007061326
16	0xbb97f81d	-0.0046377317
17	0x3992d617	0.000280068
18	0x3c56c1ad	0.013107699
19	0xbca98b26	-0.020696234
20	0xbc0e6bdd	-0.008692709
21	0x3baf7a56	0.0053551598
22	0x3c942ad5	0.01808683
23	0x3b4f37d5	0.0031618972
24	0x3cd148ba	0.025547374
25	0x3b61f55f	0.0034478528
26	0x3c6e6d20	0.014552385
27	0x3c26c6d3	0.010179239
28	0xbb0acbb0	-0.0021178536
29	0x3aba0376	0.0014191705
30	0xbbc8a0b7	-0.0061226743
31	0x3bae5a3e	0.0053208163
32	0x3c80d608	0.015727058
33	0x3c9095c4	0.017649539
34	0xbc9021fa	-0.017594326
35	0xbbcad91a	-0.0061904313
36	0x3cf1c46c	0.029512607
37	0x39615d76	0.00021492489
38	0x3c9bb83f	0.019008754
39	0xbb67644e	-0.003530759
40	0x3c3796a3	0.011205348
41	0xbc11198c	-0.0088561885
42	0x3b5b485c	0.0033459878
43	0x3a34df1f	0.0006899703
44	0xbacccd56	-0.001562516
45	0xbb3ecfae	-0.0029115486
46	0x3bfc49d0	0.007699229
47	0xbb1e3aa3	-0.0024143837
48	0x3c78920a	0.015171537
49	0xbbd30b96	-0.00644059
50	0xbba8173c	-0.005129723
51	0x3cc20483	0.023683792
52	0x3ca15fa0	0.019698918
53	0x3aa0fdd0	0.0012282673
54	0xbc4ac842	-0.012376847
55	0xbc5e34c9	-0.01356239
56	0x3c06c7b3	0.008226323
57	0x3bb9e723	0.0056733056
58	0x3b2a65a6	0.0026000529
59	0x3bf6cb9b	0.007531596
60	0xbbe3c739	-0.0069512394
61	0xbc767a3c	-0.015043791
62	0xb921d39e	-0.0001543299
63	0xbc3a0460	-0.011353582
64	0x3c832bc2	0.016012076
65	0x3c32773a	0.010892684
66	0x3c891a2d	0.016736114
67	0x3b8db24a	0.004324232
68	0x3ca35ad0	0.019940764
69	0x3c05e91b	0.008173252
70	0xbb2cf906	-0.0026393547
71	0x3c167f6c	0.009185653
72	0xbb6fe426	-0.0036604493
73	0x3bb46015	0.005504618
74	0x3be02cf9	0.0068412987
75	0xbbfc98d7	-0.0077086496
76	0x3c58ffa0	0.0132445395
77	0x3c1a75c3	0.009427491
78	0x3c2f2476	0.010689845
79	0x3cbea4c6	0.02327193
80	0xbc892e4d	-0.01674571
81	0x3b15d488	0.0022862274
82	0xbbe3fcc8	-0.006957624
83	0x3c19c659	0.009385669
84	0xbc3b6019	-0.011436486
85	0x3c4f42e1	0.0126502225
86	0xbba66215	-0.0050776103
87	0x3c3f5e85	0.01168025
88	0xbba1ea35	-0.0049412497
89	0x3b4f9caf	0.0031679084
90	0x3b3be8d3	0.002867271
91	0xbb063e9b	-0.0020484093
92	0x3b0a8c39	0.0021140708
93	0xbafecb0a	-0.0019439172
94	0xbc815161	-0.015785875
95	0xbc178e6e	-0.0092502665
96	0xbc079a29	-0.008276501
97	0xbb950700	-0.0045479536
98	0x3c3125f8	0.010812275
99	0xbb5ef485	-0.0034020257
100	0x3c465808	0.012105949
101	0xbc05e644	-0.008172575
102	0xbac57d4a	-0.0015067246
103	0x3c7da736	0.015481761
104	0x3c2511f2	0.010075079
105	0x3cd56d37	0.026053054
106	0x3bcc77d8	0.0062398724
107	0x3c32a55b	0.010903682
108	0xbc38cf27	-0.011279858
109	0x3c30c6cb	0.010789583
110	0x3cb15e2c	0.02165135
111	0xbb90de2c	-0.004421016
112	0x3ab5236c	0.0013819761
113	0xbb0dab60	-0.002161704
114	0x3bb15d81	0.005412758
115	0x3c849ded	0.016188586
116	0x3c3294bf	0.010899722
117	0x3c24440f	0.010025992
118	0x3c15e7b5	0.009149482
119	0x3c1fb83b	0.009748514
120	0x3b56cc68	0.0032775644
121	0x3c10a520	0.008828431
122	0xbc646e8a	-0.01394237
123	0x3bc18df4	0.0059068147
124	0xbc10234d	-0.008797479
125	0x3c837d01	0.016050817
126	0x3c9f4fcd	0.019447232
127	0xbc2b6a25	-0.010462319
128	0x3f8353d5	1.0259959
129	0x3f800403	1.0001224
130	0x3f810ced	1.008207
131	0x3f8406de	1.0314596
132	0x3f81be05	1.0136114
133	0x3f82ea10	1.022768
134	0x3f80a1c1	1.0049363
135	0x3f8416c2	1.0319445
136	0x3f80bf92	1.0058463
137	0x3f820c46	1.0159996
138	0x3f82b519	1.0211517
139	0x3f80e203	1.0068973
140	0x3f7f0750	0.99620533
141	0x3f839b16	1.0281703
142	0x3f83982d	1.0280815
143	0x3f7e26cd	0.99277955
144	0x3f81e832	1.0148985
145	0x3f804456	1.0020854
146	0x3f82890d	1.0198075
147	0x3f7ec99b	0.99526376
148	0x3f7e976d	0.9944981
149	0x3f81ee8a	1.0150921
150	0x3f8270ad	1.0190636
151	0x3f815251	1.0103246
152	0x3f837c9d	1.0272404
153	0x3f80ae6f	1.0053233
154	0x3f821e1c	1.0165439
155	0x3f81608d	1.010759
156	0x3f801c8a	1.000871
157	0x3f807025	1.0034224
158	0x3f7e852f	0.9942197
159	0x3f7f6a86	0.99771917
160	0x3f82713a	1.0190804
161	0x3f827b30	1.0193844
162	0x3f7e8e35	0.9943574
163	0x3f810f4e	1.0082796
164	0x3f849ed7	1.0360974
165	0x3f81d1d2	1.0142157
166	0x3f829779	1.0202476
167	0x3f7f8c0f	0.9982309
168	0x3f81de31	1.0145932
169	0x3f7d9fd6	0.99072015
170	0x3f8316b1	1.02413
171	0x3f813f90	1.0097523
172	0x3f7eea9f	0.99576753
173	0x3f80e687	1.0070351
174	0x3f7fc2ec	0.999068
175	0x3f8022df	1.0010642
176	0x3f82523c	1.0181346
177	0x3f7fd321	0.9993153
178	0x3f800820	1.000248
179	0x3f834ae6	1.0257232
180	0x3f82b26d	1.0210701
181	0x3f80a342	1.0049822
182	0x3f7fb8aa	0.9989115
183	0x3f7d69ac	0.9898937
184	0x3f83599b	1.026172
185	0x3f811883	1.0085605
186	0x3f816e5e	1.0111806
187	0x3f80e900	1.0071106
188	0x3f7e9734	0.9944947
189	0x3f7bdcb4	0.9838364
190	0x3f80aa23	1.0051922
191	0x3f7d6532	0.98982537
192	0x3f83adc2	1.0287402
193	0x3f82ef6c	1.0229316
194	0x3f839355	1.0279337
195	0x3f808e3d	1.0043408
196	0x3f81f028	1.0151415
197	0x3f813205	1.009339
198	0x3f7f0fe6	0.99633634
199	0x3f815d75	1.0106646
200	0x3f800bf7	1.0003651
201	0x3f80da2d	1.0066582
202	0x3f80eee3	1.0072902
203	0x3f7fcb5d	0.9991968
204	0x3f829717	1.0202359
205	0x3f839775	1.0280596
206	0x3f83e502	1.0304263
207	0x3f838f6a	1.0278141
208	0x3f7ca400	0.98687744
209	0x3f820f87	1.0160989
210	0x3f7e7f47	0.9941296
211	0x3f81a306	1.0127876
212	0x3f7d2a10	0.9889231
213	0x3f82770c	1.019258
214	0x3f80fa11	1.0076314
215	0x3f811cf3	1.008696
216	0x3f7fba7f	0.99893945
217	0x3f7ebcb3	0.9950668
218	0x3f822e64	1.0170407
219	0x3f8301f0	1.0234966
220	0x3f81484a	1.0100186
221	0x3f7fe481	0.99958044
222	0x3f7dc961	0.99135405
223	0x3f7e03ab	0.99224347
224	0x3f7db3f2	0.991027
225	0x3f7f4c55	0.9972585
226	0x3f820a99	1.0159484
227	0x3f8039da	1.0017655
228	0x3f81e729	1.014867
229	0x3f7ecfd9	0.995359
230	0x3f807cdf	1.0038108
231	0x3f8330dc	1.0249286
232	0x3f8181bf	1.011772
233	0x3f84768d	1.0348679
234	0x3f813b6e	1.0096262
235	0x3f81d9a3	1.0144542
236	0x3f7e34d8	0.99299383
237	0x3f841c9f	1.0321234
238	0x3f820d33	1.0160278
239	0x3f7f24ae	0.99665344
240	0x3f80bef7	1.0058278
241	0x3f8059bd	1.0027386
242	0x3f812c5f	1.0091666
243	0x3f831a8e	1.0242479
244	0x3f822474	1.0167375
245	0x3f8179ca	1.0115292
246	0x3f80e784	1.0070653
247	0x3f83dbae	1.0301416
248	0x3f81e106	1.0146797
249	0x3f8267ee	1.0187967
250	0x3f7d2596	0.98885477
251	0x3f81b712	1.0133994
252	0x3f7d9159	0.9904991
253	0x3f835f15	1.0263392
254	0x3f83d47f	1.0299224
255	0x3f7d9ea1	0.99070174

std.constant6 f4 [128, 256]
0	0x3d9b12b5	0.075719275
1	0x3da01133	0.078157805
2	0xbde0231c	-0.109441966
3	0x3dc7db96	0.097586796
4	0xbdf0fe74	-0.11767283
5	0xbd92d53c	-0.071695775
6	0x3d66e5f9	0.056371663
7	0x3ca43c53	0.020048296
8	0xbd6aa3d9	-0.057285164
9	0x3db88ffe	0.09011839
10	0xbc0bf197	-0.008541486
11	0x3dd9fc60	0.1064384
12	0xbd0f92b7	-0.035052028
13	0xbc0dd708	-0.0086572245
14	0x3dd01800	0.10160828
15	0xbcc1d38f	-0.02366045
16	0xbd880ee4	-0.06643465
17	0x3c70ff9c	0.0147093795
18	0xbd4dbad3	-0.050226998
19	0xbd7ecae3	-0.062205207
20	0xbd1e7efb	-0.038695317
21	0x3ded8629	0.11597855
22	0x3d53bf01	0.051695827
23	0xbda2a32c	-0.07941279
24	0xbd192c17	-0.037395563
25	0xbb9006a1	-0.0043953215
26	0xbdccbdb3	-0.0999712
27	0xbd1f419b	-0.038880926
28	0xba73fa3b	-0.00093070016
29	0x3dd76767	0.10517769
30	0xbd0bbc2d	-0.034115005
31	0x3c1f40f6	0.009720078
32	0x3dd6187c	0.10453889
33	0x3d910a69	0.07082064
34	0xbdd3d4bb	-0.103433095
35	0xbc7f0ed6	-0.015567502
36	0xbc586e1c	-0.013209846
37	0xbc28d708	-0.010305174
38	0x3c0ae3ae	0.008477135
39	0x3dbe86ca	0.09303053
40	0x3ccb71e3	0.024834579
41	0x3c82e90e	0.01598027
42	0xbd90f958	-0.070788085
43	0xbd7ecfce	-0.062209897
44	0xbd65b4a0	-0.05608046
45	0xbdef85bb	-0.11695429
46	0xbde428d2	-0.11140598
47	0xbe10276a	-0.14077535
48	0xbdf5cb4c	-0.120016664
49	0x3cdfe9a0	0.02733308
50	0x3ce7a45e	0.028276619
51	0x3e00d488	0.12581074
52	0xbd485bec	-0.04891579
53	0x3d0c5804	0.034263626
54	0xbdd75e4a	-0.10516031
55	0x3b4e002f	0.0031433215
56	0xbc1c120e	-0.009525789
57	0x3df35c98	0.11882895
58	0xbd569601	-0.05238915
59	0x3d867b06	0.065664336
60	0xbdb3530f	-0.087560765
61	0xbd225aa9	-0.03963724
62	0x3dbe68c9	0.0929733
63	0xbd7104ad	-0.05884235
64	0xbda045d6	-0.0782582
65	0x3dadfb13	0.08495154
66	0x3db32fed	0.087493755
67	0x3d6945bb	0.056951266
68	0xbc255492	-0.010090964
69	0x3de7c5e8	0.113170445
70	0x3d03bc52	0.032162018
71	0xbdef6130	-0.11688459
72	0x3d7627b1	0.060096446
73	0x3df5517c	0.119784325
74	0xbdd1af63	-0.102385305
75	0xbde8666b	-0.1134766
76	0x3d3b9d71	0.045804445
77	0x3de6eefd	0.11276052
78	0x3bdecf87	0.0067996415
79	0x3d8f5675	0.06998912
80	0x3d22bd07	0.03973105
81	0x3df0e1a0	0.117617846
82	0xbcb33358	-0.021875069
83	0xbb7f6bf2	-0.0038974253
84	0x3ce143c5	0.027498135
85	0x3dbe21a6	0.09283762
86	0xbcb90e1f	-0.022589741
87	0xbde9d726	-0.114179894
88	0x3db394d5	0.08768622
89	0xbdf0a3c2	-0.11749984
90	0x3dcf3e4f	0.10119306
91	0x3dd6cb80	0.10488033
92	0xbd37c454	-0.044864967
93	0xbd0d379e	-0.03447687
94	0xbbc24e06	-0.0059297113
95	0x3d6efc39	0.058346007
96	0xbc3783f7	-0.011200896
97	0xbd236175	-0.039887864
98	0x3dc23bb9	0.094840474
99	0x3d6a77db	0.05724321
100	0xbcaf69db	-0.02141278
101	0x3c8a373c	0.01687204
102	0x3da742e6	0.08167057
103	0x3da212aa	0.07913716
104	0xbcdd85be	-0.027041312
105	0x3da2290d	0.07917986
106	0x3d2e07ec	0.042488024
107	0x3aa94254	0.0012913444
108	0xbda9f781	-0.08299161
109	0x3cd074e6	0.025446367
110	0x3d7ca6f4	0.061682656
111	0xbc43f901	-0.011961223
112	0xbd632852	-0.055458374
113	0xbd97dc73	-0.07415094
114	0x3cd54222	0.026032511
115	0xbcbc6cb4	-0.023001052
116	0xbc6988f4	-0.014253844
117	0x3c617651	0.013761119
118	0x3d1ee080	0.03878832
119	0x3d0631bc	0.032762274
120	0xbdee370f	-0.11631595
121	0x3cca144c	0.024667881
122	0xbd36867d	-0.04456185
123	0x3d31b8ae	0.043389015
124	0x3cd8b2e8	0.026452497
125	0x3cf81eeb	0.03028818
126	0x3d83a30e	0.064275846
127	0x3c7d5660	0.015462488
128	0xbdc41d09	-0.095758505
129	0x3dc52daf	0.09627854
130	0xbdaa1c05	-0.083061256
131	0x3dddf10e	0.10836993
132	0xbde43678	-0.111432016
133	0x3dcea676	0.10090344
134	0xbd0c8486	-0.03430607
135	0xbbda1c70	-0.006656222
136	0xbd891fee	-0.06695543
137	0xbcadd02c	-0.021217428
138	0xbd203c93	-0.039120268
139	0xbdb19e1f	-0.08672737
140	0xbd1a9bc0	-0.03774619
141	0xbb0a4e77	-0.0021103898
142	0x3cb7e8f1	0.022449942
143	0x3dcba661	0.09943844
144	0xbda7de29	-0.081966706
145	0x3dc2efbc	0.09518382
146	0xbdeaa609	-0.1145745
147	0xbc65f84b	-0.014036248
148	0xbdb24f7a	-0.08706565
149	0x3db92c64	0.0904167
150	0x3d033839	0.03203604
151	0x3de102ec	0.109868854
152	0x3bdc0284	0.006714167
153	0x3dbcf947	0.092272334
154	0xbc81f6e1	-0.015864791
155	0xbdb6b206	-0.08920674
156	0xbdc351b1	-0.09537066
157	0x3d7b6ef8	0.061385125
158	0xbd06c3b5	-0.032901485
159	0x3b374140	0.0027962476
160	0xbdd65600	-0.10465622
161	0x3d87082a	0.06593354
162	0xbafbd2ef	-0.0019212643
163	0xbd721fed	-0.059112478
164	0x3db7042f	0.08936345
165	0xbdac5448	-0.08414513
166	0x3dab6719	0.08369274
167	0xbcc93a39	-0.024563896
168	0x3c4d3dda	0.012526954
169	0xbdbe78d6	-0.093003914
170	0x3c9a151e	0.018808898
171	0x3d893931	0.067003615
172	0xbc51dba1	-0.012808711
173	0xbd462098	-0.048370928
174	0x3d95df8b	0.07318028
175	0x3d9543bc	0.0728831
176	0x3d6a838a	0.05725435
177	0x3cd891c1	0.026436688
178	0x3d5a14e4	0.05324258
179	0xbd62f8a1	-0.055412892
180	0xbde631cc	-0.11239967
181	0xbdbbb3fd	-0.091651894
182	0xbdfd6db1	-0.123744376
183	0xbd9d5083	-0.07681372
184	0xbcb441e9	-0.022004085
185	0xbdb9a7f1	-0.090652354
186	0xbddf66c7	-0.10908275
187	0xbcfb9821	-0.03071219
188	0xbdb31f83	-0.08746245
189	0x3b873904	0.00412667
190	0x3ddbc099	0.107300945
191	0x3d6eace4	0.05827035
192	0xbdb53312	-0.088476315
193	0x3d8c6b5d	0.068564154
194	0xbca2bfe7	-0.019866897
195	0xbd0c9ef6	-0.034331284
196	0xbd95022f	-0.07275807
197	0xbd1dc533	-0.038518142
198	0xbd401312	-0.046893187
199	0x3dce1ab2	0.100636855
200	0xbcf733d5	-0.030176083
201	0xbdeffaf2	-0.11717786
202	0x3d0fe68e	0.035131983
203	0x3b8f7d13	0.0043789237
204	0x3de8b611	0.113628514
205	0xbdb798ee	-0.08964716
206	0x3dd553f7	0.10416406
207	0x3e061cbd	0.130969
208	0xbde11323	-0.10989978
209	0x3d958d51	0.073023446
210	0x3dd77802	0.105209365
211	0x3da3cdf9	0.079982705
212	0x3d968ad0	0.07350695
213	0xbd620ee3	-0.05518998
214	0xbdfebca5	-0.12438325
215	0x3de88c50	0.113548875
216	0x3c6d49eb	0.014482955
217	0x3cd12f03	0.025535112
218	0x3d64181f	0.055687066
219	0xbc58dacc	-0.013235759
220	0xbdd69f5d	-0.10479615
221	0x3de4062c	0.1113399
222	0x3bea6d3e	0.007154136
223	0xbc5e217b	-0.013557787
224	0xbcdc4082	-0.026886228
225	0x3c5769a0	0.013147742
226	0xbcad4f47	-0.021155966
227	0x3c30366d	0.010755164
228	0x3d93d05f	0.07217478
229	0xbcf3c223	-0.029755658
230	0xbdfccccd	-0.1234375
231	0x3ca86e67	0.020560456
232	0xbcff328e	-0.031152036
233	0x3c2a3d16	0.010390541
234	0x3dcf85e5	0.1013296
235	0x3d9a3daf	0.075312965
236	0x3d0335a0	0.032033563
237	0xbd12e3f0	-0.03586191
238	0x3d3a2a86	0.04545071
239	0x3ddd3e78	0.108029306
240	0x3c9388d9	0.01800959
241	0x3d6dfc63	0.058102023
242	0x3d4caf09	0.049971614
243	0xbcf40432	-0.029787157
244	0x3d735fd2	0.059417553
245	0xbcb67767	-0.022273732
246	0xbd9cea6f	-0.07661902
247	0xbbecaa93	-0.0072224825
248	0xbdf4d669	-0.11954958
249	0xbe08ecb5	-0.13371547
250	0x3df67143	0.12033322
251	0x3dd81416	0.10550706
252	0x3d88c140	0.066774845
253	0x3df03938	0.117296636
254	0x3aa608a8	0.0012667375
255	0xbbfcf0a6	-0.007719117

std.constant7 f4 [4, 128]
0	0x3e41c317	0.18922077
1	0x3dac2cb2	0.084069625
2	0xbdecf06d	-0.11569295
3	0xbde855c6	-0.11344485
4	0x3d896cf3	0.067102335
5	0x3da6efbc	0.081511945
6	0x3e39f6a0	0.18160486
7	0x3da49a30	0.080372214
8	0x3e29168d	0.16512509
9	0x3e2b6a05	0.16739662
10	0x3c58ecd8	0.013240062
11	0x3c8d5518	0.01725249
12	0x3d3b07ac	0.045661613
13	0xbcae57bd	-0.021282071
14	0x3e38d8fc	0.18051523
15	0x3e551d6c	0.20812005
16	0xbd08a7cc	-0.03336315
17	0xbe45e97f	-0.19327353
18	0x3e3948ac	0.18094128
19	0xbe03d348	-0.12873566
20	0x3e3fd373	0.18733005
21	0xbdc10029	-0.09423859
22	0xbc1d9f86	-0.009620553
23	0x3dac1ae0	0.084035635
24	0xbd8edded	-0.06975923
25	0x3c452afb	0.012034173
26	0xbe094057	-0.1340345
27	0x3e26cb94	0.16288596
28	0xbd9e7ee6	-0.07739048
29	0x3e166701	0.1468773
30	0x3d12dc32	0.035854526
31	0xbe037124	-0.12836128
32	0x3cfb1262	0.030648414
33	0xbe321f28	-0.17394698
34	0xbc673cfa	-0.014113659
35	0x3ba95367	0.005167413
36	0xbd63709b	-0.05552731
37	0x3dbf9dd7	0.093562774
38	0x3e0c03cb	0.13673322
39	0xbdea7bca	-0.11449392
40	0x3da2d2e1	0.07950378
41	0xbe16f434	-0.14741594
42	0xbe0c657e	-0.13710591
43	0xbe14c9aa	-0.14530054
44	0x3e341dc5	0.17589481
45	0x3e0ca6dd	0.13735528
46	0x3e261130	0.16217494
47	0x3e350087	0.17675982
48	0xbe6246a4	-0.2209726
49	0xbdb1e0eb	-0.08685478
50	0xbcd75a4b	-0.026288172
51	0x3e0a52ca	0.13508144
52	0xbdfb14d9	-0.12259836
53	0x3d82e901	0.06392098
54	0x3e00f302	0.125927
55	0x3e3bb91a	0.1833233
56	0x3da9ed6b	0.08297237
57	0x3d9a46ad	0.075330116
58	0x3d718e21	0.058973435
59	0x3d6792c5	0.056536455
60	0xbc9bb776	-0.01900838
61	0xbd73058b	-0.059331458
62	0xbdeb3c73	-0.11486139
63	0xbe3b29ba	-0.18277636
64	0x3da6c9f6	0.0814399
65	0xbd8f86cf	-0.070081346
66	0x3d86b40e	0.065773115
67	0xbd00d59b	-0.03145371
68	0x3dfb5dbd	0.122737385
69	0x3e382cd5	0.17985852
70	0xbe245dd8	-0.16051424
71	0xbe357b67	-0.17722856
72	0xbe0e4a93	-0.13895635
73	0xbd237321	-0.039904717
74	0x3df6ba09	0.12047202
75	0xbe2bcbdd	-0.16776986
76	0xbe5b61f3	-0.21424083
77	0x3d530714	0.051520422
78	0xbdcff08f	-0.10153305
79	0x3e0a5635	0.13509448
80	0xbcb175f7	-0.021662695
81	0x3ddc73a7	0.107642464
82	0x3d780563	0.060552012
83	0xbdebfe80	-0.115231514
84	0x3ce53251	0.027978094
85	0xbb7e4f1c	-0.0038804477
86	0x3d18748a	0.037220515
87	0x3dd29cf8	0.10283846
88	0x3c99b9c7	0.018765343
89	0x3d9cb996	0.07652585
90	0xbd8fc62b	-0.070202194
91	0xbdf5cede	-0.120023474
92	0xbe0b628b	-0.1361181
93	0x3dc3a673	0.09553232
94	0xbc668533	-0.014069843
95	0xbe325f68	-0.17419207
96	0xbd2ba602	-0.041906364
97	0x3e1461af	0.14490388
98	0xbe4384fe	-0.19093701
99	0x3d96d454	0.07364717
100	0xbe54fa7d	-0.20798679
101	0x3d6c7b57	0.057734814
102	0xbe029a28	-0.12754118
103	0xbd8b7be1	-0.068107374
104	0x3dd8bca3	0.105828546
105	0xbe237a56	-0.15964636
106	0xbe175a8f	-0.14780639
107	0xbe532476	-0.20619377
108	0x3df056b7	0.117352895
109	0xbe4fdb98	-0.20298612
110	0x3e5980c7	0.21240531
111	0xbe3665e0	-0.178123
112	0x3d429773	0.047507714
113	0xbdc7b6ba	-0.09751649
114	0x3e1fcfd9	0.15606631
115	0x3cea099f	0.02856904
116	0xbdc23027	-0.094818406
117	0xba44ccdc	-0.0007507333
118	0xbda1a0b7	-0.07891982
119	0x3db41fe0	0.08795142
120	0x3de8a9cb	0.113605104
121	0x3deb2985	0.114825286
122	0x3ce6bd73	0.028166508
123	0x3d94ca53	0.07265153
124	0x3e12f22a	0.14350191
125	0x3d8f7e54	0.07006517
126	0xbd840025	-0.0644534
127	0x3e3e2489	0.18568625
128	0xbe4bd60c	-0.19905871
129	0x3e03adbf	0.12859248
130	0x3d445948	0.047936708
131	0x3e251e5e	0.16124865
132	0x3dc0c1f2	0.09411992
133	0x3d95a2b3	0.07306423
134	0xbc431c47	-0.011908597
135	0xbde989c6	-0.11403231
136	0x3dc3cd5e	0.09560655
137	0xbda15dd3	-0.07879224
138	0x3df66453	0.12030854
139	0x3dc0cfe4	0.09414652
140	0xbe087869	-0.13327183
141	0x3da6028d	0.08105955
142	0x3c32a8eb	0.010904531
143	0x3e1f75d5	0.15572293
144	0x3d92b1b9	0.07162804
145	0xbe04f952	-0.12985733
146	0xbe32d3e8	-0.17463648
147	0x3e049f23	0.12951331
148	0xbe5f50fb	-0.21808235
149	0x3dc5cdb0	0.096583724
150	0x3e2bff88	0.16796696
151	0xbdcaef8d	-0.09908972
152	0xbdcd5ea3	-0.10027816
153	0x3c9f192e	0.019421186
154	0x3b77dca1	0.0037820714
155	0xbe3368a5	-0.17520387
156	0x3e1bd909	0.15219511
157	0xbdbb2017	-0.0913698
158	0xbe44dbaf	-0.19224428
159	0xbe41cf5e	-0.1892676
160	0xbe09a149	-0.13440432
161	0xbe19a3cb	-0.15003888
162	0xbddf8dd2	-0.10915722
163	0xbe48c3d2	-0.1960595
164	0x3db217df	0.08695959
165	0x3d8fce3e	0.070217595
166	0xbc386158	-0.011253677
167	0x3dc3a87a	0.09553619
168	0x3cf27802	0.02959824
169	0x3d31e521	0.043431405
170	0xbe521c13	-0.20518522
171	0xbc447449	-0.011990615
172	0xbdfde510	-0.12397206
173	0xbb2cff29	-0.0026397204
174	0xbda4841f	-0.080330126
175	0xbe3df26a	-0.18549505
176	0x3e5d01b3	0.2158268
177	0xbc1c4963	-0.009538981
178	0xbd46ac9f	-0.048504468
179	0x3d12e511	0.035862986
180	0xbe26e271	-0.16297318
181	0xbdc0caf2	-0.09413709
182	0x3e19da8b	0.15024774
183	0xbe2ff09d	-0.1718163
184	0x3c9ec2ac	0.019379936
185	0xbd02479f	-0.031806584
186	0xbe0ded79	-0.1386012
187	0xbcbf2d0c	-0.02333691
188	0x3d9f73f4	0.07785788
189	0xbe4ede45	-0.20201977
190	0x3da91d86	0.08257584
191	0xbe0fcd40	-0.1404314
192	0x3b1b9c81	0.0023744407
193	0xbd96750c	-0.07346544
194	0x3e3e9a24	0.18613487
195	0x3dc9b3d7	0.09848755
196	0xbdb9510f	-0.09048664
197	0xbe4609fb	-0.19339745
198	0xbc1ae84b	-0.009454797
199	0xbb9dbcde	-0.0048137745
200	0x3dc922e0	0.09821105
201	0xbd4879bd	-0.048944224
202	0x3d96ff81	0.07372952
203	0xbe506436	-0.20350727
204	0x3e3dbaaa	0.18528238
205	0x3e0473b4	0.12934762
206	0x3c73de9a	0.014884615
207	0xbd11a6da	-0.035559513
208	0xbe3dba9e	-0.1852822
209	0x3e15bae6	0.14622077
210	0xbe06f3bd	-0.13178916
211	0xbe0af423	-0.13569693
212	0xbd0cea60	-0.034403205
213	0xbdbb26d8	-0.09138268
214	0xbdb874d1	-0.09006656
215	0xbde756b6	-0.11295836
216	0x3b795914	0.003804748
217	0x3d4fd820	0.050743222
218	0xbce2e478	-0.027696833
219	0x3e12b84a	0.14328113
220	0x3ddba572	0.107249156
221	0x3e4b8571	0.19875123
222	0x3c63f67c	0.013913747
223	0xbe0600b6	-0.13086209
224	0x3c9fabd9	0.019491123
225	0xbca9bce0	-0.020719945
226	0xbd6de352	-0.058078118
227	0xbe2d76f2	-0.16939905
228	0x3e154774	0.14578038
229	0xbd8e9e85	-0.06963829
230	0x3ddaea98	0.106892765
231	0x3dfdf9e4	0.124011785
232	0xbe0f918a	-0.14020362
233	0x3d96e927	0.07368689
234	0xbc70ebbf	-0.014704644
235	0xbe51329b	-0.2042946
236	0x3e24bcab	0.16087596
237	0x3e11fe7d	0.14257236
238	0x3c8dc007	0.01730348
239	0x3c2c420a	0.010513792
240	0xbda945e4	-0.08265284
241	0x3deaf196	0.1147186
242	0x3e176184	0.14783293
243	0x3e30285e	0.17202899
244	0x3de381d9	0.11108751
245	0xbdebbdd4	-0.11510816
246	0xbdbef5a6	-0.093241975
247	0x3e54b71b	0.20772974
248	0x3e51b645	0.20479687
249	0xbe1289c5	-0.14310367
250	0xbdb4e669	-0.0883301
251	0x3e06c8ad	0.13162489
252	0x3e19946e	0.14998028
253	0xbe5d5ad6	-0.21616682
254	0xbc612888	-0.013742574
255	0x3c8b4a53	0.017003214

bidirectional/backward_lstm/lstm_cell_5/bias1 f4 [512]
0	0x3c784256	0.0151525345
1	0xbb32c0db	-0.0027275595
2	0x3b38682d	0.0028138265
3	0x3cc7b913	0.024380242
4	0x3c10dc12	0.008841531
5	0x3c3c5141	0.011493982
6	0x3bb6de69	0.0055807126
7	0x3cc3bdc6	0.023894202
8	0x3bed1ad0	0.0072358623
9	0x3c06ed71	0.008235321
10	0x3bcf36dc	0.0063236784
11	0x3ab80054	0.0014038184
12	0xbbd85d91	-0.006602951
13	0x3cb44414	0.022005118
14	0x3c9813c4	0.018564112
15	0xbbe762b2	-0.007061326
16	0xbb97f81d	-0.0046377317
17	0x3992d617	0.000280068
18	0x3c56c1ad	0.013107699
19	0xbca98b26	-0.020696234
20	0xbc0e6bdd	-0.008692709
21	0x3baf7a56	0.0053551598
22	0x3c942ad5	0.01808683
23	0x3b4f37d5	0.0031618972
24	0x3cd148ba	0.025547374
25	0x3b61f55f	0.0034478528
26	0x3c6e6d20	0.014552385
27	0x3c26c6d3	0.010179239
28	0xbb0acbb0	-0.0021178536
29	0x3aba0376	0.0014191705
30	0xbbc8a0b7	-0.0061226743
31	0x3bae5a3e	0.0053208163
32	0x3c80d608	0.015727058
33	0x3c9095c4	0.017649539
34	0xbc9021fa	-0.017594326
35	0xbbcad91a	-0.0061904313
36	0x3cf1c46c	0.029512607
37	0x39615d76	0.00021492489
38	0x3c9bb83f	0.019008754
39	0xbb67644e	-0.003530759
40	0x3c3796a3	0.011205348
41	0xbc11198c	-0.0088561885
42	0x3b5b485c	0.0033459878
43	0x3a34df1f	0.0006899703
44	0xbacccd56	-0.001562516
45	0xbb3ecfae	-0.0029115486
46	0x3bfc49d0	0.007699229
47	0xbb1e3aa3	-0.0024143837
48	0x3c78920a	0.015171537
49	0xbbd30b96	-0.00644059
50	0xbba8173c	-0.005129723
51	0x3cc20483	0.023683792
52	0x3ca15fa0	0.019698918
53	0x3aa0fdd0	0.0012282673
54	0xbc4ac842	-0.012376847
55	0xbc5e34c9	-0.01356239
56	0x3c06c7b3	0.008226323
57	0x3bb9e723	0.0056733056
58	0x3b2a65a6	0.0026000529
59	0x3bf6cb9b	0.007531596
60	0xbbe3c739	-0.0069512394
61	0xbc767a3c	-0.015043791
62	0xb921d39e	-0.0001543299
63	0xbc3a0460	-0.011353582
64	0x3c832bc2	0.016012076
65	0x3c32773a	0.010892684
66	0x3c891a2d	0.016736114
67	0x3b8db24a	0.004324232
68	0x3ca35ad0	0.019940764
69	0x3c05e91b	0.008173252
70	0xbb2cf906	-0.0026393547
71	0x3c167f6c	0.009185653
72	0xbb6fe426	-0.0036604493
73	0x3bb46015	0.005504618
74	0x3be02cf9	0.0068412987
75	0xbbfc98d7	-0.0077086496
76	0x3c58ffa0	0.0132445395
77	0x3c1a75c3	0.009427491
78	0x3c2f2476	0.010689845
79	0x3cbea4c6	0.02327193
80	0xbc892e4d	-0.01674571
81	0x3b15d488	0.0022862274
82	0xbbe3fcc8	-0.006957624
83	0x3c19c659	0.009385669
84	0xbc3b6019	-0.011436486
85	0x3c4f42e1	0.0126502225
86	0xbba66215	-0.0050776103
87	0x3c3f5e85	0.01168025
88	0xbba1ea35	-0.0049412497
89	0x3b4f9caf	0.0031679084
90	0x3b3be8d3	0.002867271
91	0xbb063e9b	-0.0020484093
92	0x3b0a8c39	0.0021140708
93	0xbafecb0a	-0.0019439172
94	0xbc815161	-0.015785875
95	0xbc178e6e	-0.0092502665
96	0xbc079a29	-0.008276501
97	0xbb950700	-0.0045479536
98	0x3c3125f8	0.010812275
99	0xbb5ef485	-0.0034020257
100	0x3c465808	0.012105949
101	0xbc05e644	-0.008172575
102	0xbac57d4a	-0.0015067246
103	0x3c7da736	0.015481761
104	0x3c2511f2	0.010075079
105	0x3cd56d37	0.026053054
106	0x3bcc77d8	0.0062398724
107	0x3c32a55b	0.010903682
108	0xbc38cf27	-0.011279858
109	0x3c30c6cb	0.010789583
110	0x3cb15e2c	0.02165135
111	0xbb90de2c	-0.004421016
112	0x3ab5236c	0.0013819761
113	0xbb0dab60	-0.002161704
114	0x3bb15d81	0.005412758
115	0x3c849ded	0.016188586
116	0x3c3294bf	0.010899722
117	0x3c24440f	0.010025992
118	0x3c15e7b5	0.009149482
119	0x3c1fb83b	0.009748514
120	0x3b56cc68	0.0032775644
121	0x3c10a520	0.008828431
122	0xbc646e8a	-0.01394237
123	0x3bc18df4	0.0059068147
124	0xbc10234d	-0.008797479
125	0x3c837d01	0.016050817
126	0x3c9f4fcd	0.019447232
127	0xbc2b6a25	-0.010462319
128	0x3f8353d5	1.0259959
129	0x3f800403	1.0001224
130	0x3f810ced	1.008207
131	0x3f8406de	1.0314596
132	0x3f81be05	1.0136114
133	0x3f82ea10	1.022768
134	0x3f80a1c1	1.0049363
135	0x3f8416c2	1.0319445
136	0x3f80bf92	1.0058463
137	0x3f820c46	1.0159996
138	0x3f82b519	1.0211517
139	0x3f80e203	1.0068973
140	0x3f7f0750	0.99620533
141	0x3f839b16	1.0281703
142	0x3f83982d	1.0280815
143	0x3f7e26cd	0.99277955
144	0x3f81e832	1.0148985
145	0x3f804456	1.0020854
146	0x3f82890d	1.0198075
147	0x3f7ec99b	0.99526376
148	0x3f7e976d	0.9944981
149	0x3f81ee8a	1.0150921
150	0x3f8270ad	1.0190636
151	0x3f815251	1.0103246
152	0x3f837c9d	1.0272404
153	0x3f80ae6f	1.0053233
154	0x3f821e1c	1.0165439
155	0x3f81608d	1.010759
156	0x3f801c8a	1.000871
157	0x3f807025	1.0034224
158	0x3f7e852f	0.9942197
159	0x3f7f6a86	0.99771917
160	0x3f82713a	1.0190804
161	0x3f827b30	1.0193844
162	0x3f7e8e35	0.9943574
163	0x3f810f4e	1.0082796
164	0x3f849ed7	1.0360974
165	0x3f81d1d2	1.0142157
166	0x3f829779	1.0202476
167	0x3f7f8c0f	0.9982309
168	0x3f81de31	1.0145932
169	0x3f7d9fd6	0.99072015
170	0x3f8316b1	1.02413
171	0x3f813f90	1.0097523
172	0x3f7eea9f	0.99576753
173	0x3f80e687	1.0070351
174	0x3f7fc2ec	0.999068
175	0x3f8022df	1.0010642
176	0x3f82523c	1.0181346
177	0x3f7fd321	0.9993153
178	0x3f800820	1.000248
179	0x3f834ae6	1.0257232
180	0x3f82b26d	1.0210701
181	0x3f80a342	1.0049822
182	0x3f7fb8aa	0.9989115
183	0x3f7d69ac	0.9898937
184	0x3f83599b	1.026172
185	0x3f811883	1.0085605
186	0x3f816e5e	1.0111806
187	0x3f80e900	1.0071106
188	0x3f7e9734	0.9944947
189	0x3f7bdcb4	0.9838364
190	0x3f80aa23	1.0051922
191	0x3f7d6532	0.98982537
192	0x3f83adc2	1.0287402
193	0x3f82ef6c	1.0229316
194	0x3f839355	1.0279337
195	0x3f808e3d	1.0043408
196	0x3f81f028	1.0151415
197	0x3f813205	1.009339
198	0x3f7f0fe6	0.99633634
199	0x3f815d75	1.0106646
200	0x3f800bf7	1.0003651
201	0x3f80da2d	1.0066582
202	0x3f80eee3	1.0072902
203	0x3f7fcb5d	0.9991968
204	0x3f829717	1.0202359
205	0x3f839775	1.0280596
206	0x3f83e502	1.0304263
207	0x3f838f6a	1.0278141
208	0x3f7ca400	0.98687744
209	0x3f820f87	1.0160989
210	0x3f7e7f47	0.9941296
211	0x3f81a306	1.0127876
212	0x3f7d2a10	0.9889231
213	0x3f82770c	1.019258
214	0x3f80fa11	1.0076314
215	0x3f811cf3	1.008696
216	0x3f7fba7f	0.99893945
217	0x3f7ebcb3	0.9950668
218	0x3f822e64	1.0170407
219	0x3f8301f0	1.0234966
220	0x3f81484a	1.0100186
221	0x3f7fe481	0.99958044
222	0x3f7dc961	0.99135405
223	0x3f7e03ab	0.99224347
224	0x3f7db3f2	0.991027
225	0x3f7f4c55	0.9972585
226	0x3f820a99	1.0159484
227	0x3f8039da	1.0017655
228	0x3f81e729	1.014867
229	0x3f7ecfd9	0.995359
230	0x3f807cdf	1.0038108
231	0x3f8330dc	1.0249286
232	0x3f8181bf	1.011772
233	0x3f84768d	1.0348679
234	0x3f813b6e	1.0096262
235	0x3f81d9a3	1.0144542
236	0x3f7e34d8	0.99299383
237	0x3f841c9f	1.0321234
238	0x3f820d33	1.0160278
239	0x3f7f24ae	0.99665344
240	0x3f80bef7	1.0058278
241	0x3f8059bd	1.0027386
242	0x3f812c5f	1.0091666
243	0x3f831a8e	1.0242479
244	0x3f822474	1.0167375
245	0x3f8179ca	1.0115292
246	0x3f80e784	1.0070653
247	0x3f83dbae	1.0301416
248	0x3f81e106	1.0146797
249	0x3f8267ee	1.0187967
250	0x3f7d2596	0.98885477
251	0x3f81b712	1.0133994
252	0x3f7d9159	0.9904991
253	0x3f835f15	1.0263392
254	0x3f83d47f	1.0299224
255	0x3f7d9ea1	0.99070174

std.constant16 f4 [512, 128]
0	0x3c332358	0.01093372
1	0xbd1f49eb	-0.038888853
2	0x3c60e36d	0.0137260975
3	0xbd83083c	-0.06398055
4	0x3d1dd03f	0.038528677
5	0xbda20c17	-0.07912462
6	0xbd5a71cc	-0.05333118
7	0x3bb89f0c	0.0056341942
8	0xbd5c62b9	-0.053805087
9	0x3d9892b7	0.07449859
10	0x3c07b9dc	0.008284058
11	0xbd601bf2	-0.05471415
12	0x3bb12c51	0.0054068943
13	0x3d16dc5f	0.036831256
14	0x3cc9387f	0.024563072
15	0xbb6ed33f	-0.003644183
16	0x3be16ad2	0.006879189
17	0xbd0e747c	-0.034779057
18	0xbd8244cf	-0.063607804
19	0x3d7e90b1	0.062149707
20	0x3c650702	0.013978722
21	0x3c6ad7d4	0.014333684
22	0x3cbbff1c	0.022948794
23	0xbe0777de	-0.1322932
24	0xbc85a238	-0.016312703
25	0xbd54c042	-0.051941164
26	0xbb60ee96	-0.0034321896
27	0x3ca5e5c7	0.020251168
28	0xbccf530c	-0.025308155
29	0x3d571afc	0.05251597
30	0x3ce36608	0.027758613
31	0xbc0a163e	-0.0084281545
32	0xbd9e6e59	-0.07735891
33	0xbc36ba3b	-0.011152799
34	0xbd074314	-0.033022955
35	0x3d6335a2	0.05547107
36	0xbdc3a218	-0.09552401
37	0x3d8a03d9	0.06739015
38	0x3cefe26c	0.029282771
39	0x3d0e7d53	0.034787487
40	0x3cf02108	0.029312626
41	0xbcb53a1e	-0.022122439
42	0xbd03287b	-0.032021027
43	0xbd525737	-0.051352706
44	0xbcf14508	-0.029451862
45	0x3d3cbbb4	0.046077445
46	0x3c35625c	0.011070814
47	0xbc8087a6	-0.015689682
48	0x3d319319	0.043353174
49	0x3dac2453	0.08405366
50	0xbc878940	-0.016544938
51	0xbc3681ed	-0.011139375
52	0xbbeaa25e	-0.007160469
53	0xbcc99587	-0.024607433
54	0x3d92ae1b	0.07162114
55	0xbc05b74c	-0.008161377
56	0x3dc290ca	0.095002726
57	0xbd287561	-0.041127566
58	0x3d02e565	0.03195705
59	0x3ba1df1c	0.004939927
60	0xbd076086	-0.033051036
61	0x3cfe55df	0.031046806
62	0xbd622f9b	-0.05522118
63	0x3d0bdc65	0.03414573
64	0xbba69696	-0.005083869
65	0x3b41e3c4	0.0029585222
66	0xbd475d35	-0.048672874
67	0x3b7023a7	0.0036642344
68	0x3da07327	0.078344636
69	0xbd94dd20	-0.07268739
70	0xbb227f2c	-0.0024795039
71	0xbd2f2a17	-0.04276475
72	0xbd593701	-0.05303097
73	0xbd3853f0	-0.045001924
74	0x3cad32e9	0.02114244
75	0xbd73d29a	-0.059527017
76	0xbd5ff66e	-0.054678373
77	0x3d2dc326	0.042422436
78	0xbd294a23	-0.041330468
79	0x3da09365	0.07840613
80	0xbc8215de	-0.015879568
81	0x3c6528f8	0.0139868185
82	0xbc12fef0	-0.008971915
83	0x3d6b951b	0.057515245
84	0xbc527f2e	-0.012847705
85	0xbc9ea4c1	-0.01936567
86	0x3cce9663	0.025218194
87	0xbd80063b	-0.06251188
88	0xbc502125	-0.012703215
89	0xbd1edde2	-0.038785823
90	0x3ceacaca	0.02866115
91	0xbd044d27	-0.03230014
92	0x3d304beb	0.04304115
93	0xbdac50b1	-0.08413828
94	0x3ca6e5bc	0.020373218
95	0xbd5413c8	-0.051776677
96	0xbccf7b56	-0.025327366
97	0xbd67b00e	-0.056564383
98	0xbc09e8d4	-0.008417327
99	0xbdf1662f	-0.11787068
100	0xbd933b74	-0.07189074
101	0xbd883944	-0.066515476
102	0x3d8d6469	0.06903917
103	0xbd4e9379	-0.05043361
104	0xbc44c93c	-0.012010869
105	0xbd2c1354	-0.04201062
106	0xbc0cbff3	-0.008590686
107	0xbd50ce0c	-0.05097775
108	0xbb615548	-0.0034383107
109	0x3d373a57	0.04473337
110	0x3d1f72dc	0.038927898
111	0x3d750095	0.05981501
112	0xbce8ad34	-0.028402902
113	0x3d861dde	0.065486655
114	0x3dafdd6c	0.08587155
115	0x3d431f3b	0.047637206
116	0x3d8e9bf1	0.06963337
117	0xbd121b8c	-0.035670802
118	0x3c5f2303	0.013619187
119	0xbcd0f626	-0.025507998
120	0xbd26005d	-0.04052769
121	0x3c9308fb	0.017948618
122	0x3b79fb1a	0.0038144053
123	0x3d79fa0b	0.061029475
124	0x3d289391	0.041156355
125	0xbccbf1ac	-0.024895512
126	0x3d175dc4	0.036954656
127	0xbd155632	-0.036459155
128	0xbcafc1e8	-0.021454766
129	0xbdca30ad	-0.098725654
130	0x3bb1831a	0.00541724
131	0xbd074d9e	-0.033033006
132	0x3d9cd9f4	0.07658759
133	0x3c97a20a	0.018509883
134	0x3d0aa5dc	0.033849582
135	0x3cad49cb	0.021153351
136	0x3bedbd2a	0.007255216
137	0xbd70cfc6	-0.0587919
138	0xbc0da500	-0.008645296
139	0x3d780ded	0.060560156
140	0x3ce6fcae	0.028196659
141	0x3a91b81b	0.001111749
142	0x3ba5c235	0.0050585517
143	0x3d30c1de	0.043153636
144	0x3c9218c6	0.017834079
145	0x3d3fef65	0.046859164
146	0xbd9782fe	-0.07398032
147	0x3dbcd693	0.09220614
148	0xbb92e16e	-0.0044824397
149	0xbd13726f	-0.035997804
150	0xbd22e045	-0.03976466
151	0xbdd616b6	-0.104535505
152	0xbcc76446	-0.024339806
153	0xbba1cfc8	-0.0049380995
154	0xbdc7e87a	-0.09761138
155	0xbc8ec213	-0.017426526
156	0x3a82f1c2	0.0009990262
157	0xbd079d0d	-0.03310876
158	0xbd87002a	-0.06591828
159	0x3d67356f	0.056447443
160	0x3ba37e0e	0.004989392
161	0x3d9beb0b	0.0761319
162	0x3894cd20	7.0953975e-05
163	0xbc2b9534	-0.0104725845
164	0xbd98efda	-0.07467623
165	0x3c309724	0.010778222
166	0xbd821c2f	-0.06353032
167	0x3c868b10	0.016423732
168	0xbb7182a1	-0.0036851543
169	0xbca2b74e	-0.019862797
170	0x3d3e3539	0.046437476
171	0x3b5724f4	0.0032828422
172	0xbc13a060	-0.009010404
173	0x3d3ae9fd	0.045633305
174	0x3c5b81a7	0.013397611
175	0xbd59f7c2	-0.053214796
176	0x3d241e58	0.040068
177	0xbb01f6ac	-0.0019830866
178	0xbd8b4582	-0.06800367
179	0xbd84e649	-0.06489236
180	0x3ca90b5b	0.020635298
181	0x3d433911	0.047661845
182	0x3b1f6f28	0.002432773
183	0xbd10c109	-0.035340343
184	0xbdc2c812	-0.09510817
185	0xbe03d963	-0.12875895
186	0x3d827b3c	0.06371161
187	0x3d0ae0b2	0.033905692
188	0x3d1a82c9	0.037722383
189	0x3ba930f6	0.0051633073
190	0x3de2b821	0.11070276
191	0xbd7e0b3c	-0.062022433
192	0x3ab86836	0.0014069143
193	0xbb81daae	-0.003962836
194	0xbca51fe0	-0.0201568
195	0xbcad0575	-0.021120766
196	0x3d3c5a0e	0.04598432
197	0x3d6aeffc	0.057357773
198	0x3d65bead	0.056090046
199	0x3cdb4b7f	0.026769398
200	0x3d50f44c	0.05101423
201	0x3d842de6	0.06454067
202	0xbb88a7de	-0.004170402
203	0xbd96f292	-0.07370485
204	0xbcb84f9f	-0.022498904
205	0xbd88e6af	-0.066846244
206	0xbd232e38	-0.039839
207	0x3c08ffbc	0.008361753
208	0xbd204b8f	-0.03913456
209	0xbaab1fd4	-0.001305575
210	0x3a88b96d	0.0010431238
211	0x3cc1f91e	0.023678359
212	0x3b483b15	0.0030552794
213	0xbd67101c	-0.056411847
214	0x3dc002fa	0.09375568
215	0x3d585643	0.05281664
216	0x3d5dbc41	0.05413461
217	0x3cf5654a	0.029955525
218	0xbd8d3014	-0.06893936
219	0xbd8498be	-0.06474446
220	0xbd912888	-0.07087809
221	0x3a104b04	0.0005504342
222	0x3d41e2ca	0.047335424
223	0xbd858cb7	-0.0652098
224	0xbae779bd	-0.0017660182
225	0xbbc47465	-0.0059953206
226	0x3d021d18	0.031766027
227	0xbc612483	-0.013741615
228	0x3d440725	0.047858376
229	0xbcda3b56	-0.026639622
230	0xbc56bb37	-0.013106159
231	0x3d297773	0.04137368
232	0xbd2a907a	-0.04164169
233	0x3d27fb76	0.041011296
234	0x3db428e0	0.08796859
235	0xbc308f9e	-0.0107764285
236	0xbd09faa4	-0.033686295
237	0x3a4054c6	0.0007336851
238	0x3cb6bdf0	0.022307366
239	0xbd96a7ca	-0.07356222
240	0xbccb38d6	-0.024807375
241	0x3d0a1538	0.033711642
242	0xbc961edc	-0.018325262
243	0x3d1a4071	0.037659112
244	0xbb70477e	-0.0036663706
245	0xbc4dfd65	-0.012572621
246	0x3bea4d69	0.0071503413
247	0x3d39b9d6	0.045343243
248	0xbcb7a22b	-0.022416195
249	0xbc00d8c5	-0.007864182
250	0x3cc33a3a	0.023831476
251	0x3c07ead2	0.008295732
252	0xbc479bf8	-0.012183182
253	0xbd5129f4	-0.0510654
254	0xbdd25ad8	-0.10271233
255	0x3d9058e6	0.07048206
